lenet.pkl (torch_old, 444497 bytes, 10 tensors)

weight f4 [6, 1, 5, 5]
000000 bd e4 4f be 33 e3 16 be 6c 78 92 bd 14 db 6c 3d
       -0.203021 -0.14735107 -0.07151875 0.057826117
000010 1e 1b 3b be 44 23 c2 bd 89 b6 a6 bc 5a 1b 66 be
       -0.18272063 -0.09479383 -0.020350711 -0.22471371
000020 9a e1 ce 3d 6c 38 21 bd b0 95 9e 3c 65 02 60 be
       0.10101624 -0.03936045 0.019358486 -0.21875913
000030 ff b9 a7 3d 2c 5e 7e be b2 a0 b8 3d 66 39 5f be
       0.08189773 -0.24840611 0.09015025 -0.2179924
000040 93 ae b4 bd 36 ee 96 bd 1d 51 ca 3c d2 be f6 bb
       -0.0882236 -0.07369654 0.024696881 -0.007530072
000050 44 4e 4f 3d ad 59 50 be 13 6c 0d be db f9 0f be
       0.05061175 -0.20346709 -0.13810758 -0.14060156
000060 c4 e4 e9 bd 95 78 c9 be 7a 6a 68 be 00 f9 1b bf
       -0.11420587 -0.3934981 -0.22696868 -0.6092682
000070 c9 d8 be be 6b 62 0b bf de 72 cc be be e1 cc be
       -0.3727477 -0.5444705 -0.39931387 -0.40015978
000080 df e3 c4 be a0 a0 0a bf 4a 49 0e bf 64 6b d9 be
       -0.38455102 -0.54151344 -0.5558058 -0.42464745
000090 8b 62 dc be 29 07 1d bf 54 bd 9a be 6a 68 6b be
       -0.43043932 -0.6133905 -0.3022257 -0.2298905
0000a0 97 81 8d be ee a1 85 be ae bb 9b be dd cb 00 bf
       -0.27637932 -0.26100105 -0.30416626 -0.5031107
0000b0 6a 4b 60 be 79 80 82 be 9a c6 c1 be c4 bc f2 be
       -0.21903768 -0.25488642 -0.37846833 -0.47409642
0000c0 8a b5 de be 7f 97 b2 be 68 f5 7e be 1d 60 62 be
       -0.43497878 -0.34881207 -0.24898303 -0.22106977
0000d0 31 79 0a be ff 3e 4e be 35 22 29 be 39 10 5a be
       -0.13522793 -0.20141219 -0.16516955 -0.21295251
0000e0 9e 14 5c bd e4 10 a3 be 22 65 ea bd 99 d4 b9 be
       -0.0537306 -0.31848824 -0.11445071 -0.36295012
0000f0 87 0c b9 be da 87 0a be c2 50 ae be bf b9 88 be
       -0.3614237 -0.13528386 -0.34045988 -0.26704213
000100 79 19 ac be a1 9e 94 be 00 fe a7 be 5c a9 ad be
       -0.33613184 -0.29027274 -0.32810974 -0.33918273
000110 15 84 bd bd 32 a4 e2 bd e3 6d a9 bd d7 35 5f bd
       -0.09253708 -0.11066474 -0.08272912 -0.054494705
000120 89 f6 2e be f6 8b 3c be a1 78 f8 bd d3 bb 88 be
       -0.17086233 -0.18412766 -0.12132383 -0.26705799
000130 c1 9d 0a bf a8 bd b7 be 86 5c ac be 2f 97 0c bf
       -0.54146963 -0.35886884 -0.3366434 -0.5491819
000140 d3 ac 0c bf 99 25 e6 be ce 76 2a bf d0 27 20 bf
       -0.5495121 -0.4495056 -0.6658753 -0.6256075
000150 16 a8 f5 be 1f 53 ec be a6 4c 06 bf a8 28 de be
       -0.47979802 -0.46157166 -0.52460706 -0.43390393
000160 ba fa f0 be 60 3a 1a bf 31 52 0d bf bf f2 21 bf
       -0.4706629 -0.60245323 -0.5520354 -0.63261026
000170 0e 1c cc be 7e e7 13 bf 28 66 a4 be d4 ae bb be
       -0.39865154 -0.57775104 -0.3210919 -0.3665682
000180 6e 78 b7 be 09 42 ea be 4f aa da be c0 84 e5 be
       -0.35834068 -0.45753506 -0.4270806 -0.44827843
000190 c1 78 2b be 4a b6 89 3c 6c 68 84 bb b1 50 71 be
       -0.16745283 0.016810555 -0.0040407684 -0.23565938
0001a0 85 73 9a 3b d9 0b 9d bd 45 50 3f be 6c d4 43 be
       0.004713478 -0.076682754 -0.18682964 -0.19124001
0001b0 62 0d 32 bd 10 d9 88 be 79 a4 e4 bd 53 00 18 be
       -0.043469794 -0.26728106 -0.11164183 -0.14843874
0001c0 1e 3f 03 be f1 4f 5a be 18 4e 9c bc 6d 7b e3 bd
       -0.12817046 -0.21319558 -0.019080207 -0.11107526
0001d0 12 aa 97 be 8b 49 ce bd ec f1 86 be 4c 06 db bd
       -0.2962194 -0.10072621 -0.26356447 -0.106945604
0001e0 ea 20 f6 3c 12 59 3d be e3 c0 5e 3b 84 04 3e be
       0.030044992 -0.18491009 0.003398948 -0.1855641
0001f0 ad 43 05 3c be 7c 55 3e 02 be 0b 3f 90 28 0e 3f
       0.008133811 0.20848367 0.54586804 0.55530643
000200 b9 94 a1 3e 81 fd 04 3f 80 c0 25 3e 72 e3 5a be
       0.3155878 0.51949316 0.16186714 -0.21375826
000210 69 8d d4 be 48 f0 7b be e6 3d 24 be cf b2 12 3e
       -0.41514137 -0.24603379 -0.16039237 0.14326023
000220 ab 6d 19 bf 6a cb 74 be 50 75 e2 be 73 d0 d6 be
       -0.59932965 -0.23905721 -0.44230127 -0.4195591
000230 a3 38 ea be 60 0b fd be 5c 67 49 bf b4 36 57 bf
       -0.45746335 -0.4942274 -0.7867334 -0.84067845
000240 40 d7 36 bf 03 5a 00 3e df f4 13 bf d8 f7 9b bd
       -0.71422195 0.12534337 -0.5779552 -0.07615632
000250 78 52 ab be eb 09 26 3f
       -0.33461356 0.64858884

bias f4 [6]
000000 35 21 68 be 19 33 b2 bf e3 25 3d bf 29 99 e4 bf
       -0.22668917 -1.3921844 -0.73885936 -1.7859241
000010 de 09 f0 be e6 4a 92 3f
       -0.46882528 1.1429107

weight f4 [16, 6, 5, 5]
000000 eb 60 21 bd 24 e3 0e be 11 1e 0d be a0 49 13 be
       -0.03939907 -0.13953835 -0.13781 -0.14383554
000010 a3 9c e0 bd bc e2 15 be 86 6b 9f bd 0a 8d b4 bc
       -0.10967376 -0.14637274 -0.0778418 -0.022039909
000020 06 1d db bd 69 dc 87 bd 78 6f 22 bd 82 7d 00 be
       -0.10698895 -0.06633837 -0.039657086 -0.12547877
000030 f6 e0 2e be f6 3f 5e bd fa 85 f4 bd aa f0 63 bc
       -0.17078003 -0.054260217 -0.119396165 -0.013912359
000040 7f a5 db bd d4 d5 ed bc 18 83 ac bd c8 96 06 bc
       -0.10724925 -0.029032625 -0.08423442 -0.00821466
000050 06 c5 10 be 5b 81 18 be 45 9f 13 be 10 03 d7 bd
       -0.14137658 -0.14893095 -0.14416225 -0.10498631
000060 4f ac f4 bb 5b 04 81 be a6 32 9f be f5 b0 97 be
       -0.00746683 -0.25198635 -0.3109333 -0.29627195
000070 90 1a 99 be 75 6e 8f be bc 5d 89 be fc a1 c3 be
       -0.29903078 -0.2801396 -0.26829326 -0.38209522
000080 7e 41 c9 be e3 c6 8d be 32 6e bd be f0 3b 6c be
       -0.3930778 -0.276908 -0.36998135 -0.2306974
000090 3d 18 74 be 4c 2f b7 be 89 b2 8f be b7 bf e4 be
       -0.23837371 -0.35778272 -0.280659 -0.44677517
0000a0 85 40 9c be e8 65 9b be 93 7f ac be 2c d1 94 be
       -0.30517974 -0.30351186 -0.3369108 -0.29065835
0000b0 f7 72 af be e3 25 ea be 58 0f e8 be 08 e5 92 be
       -0.342674 -0.4573203 -0.45324206 -0.28690362
0000c0 20 13 9c be 2d 26 9d be fd 2d dd bd 26 e9 ea bd
       -0.3048334 -0.30693188 -0.10799787 -0.11470251
0000d0 0b 86 7b be bb 61 84 be d3 66 7c be 4c 53 9b bd
       -0.24562852 -0.25855812 -0.246486 -0.07584247
0000e0 30 6e 98 bd e6 45 18 be 66 21 20 be a7 b5 22 be
       -0.074428916 -0.14870414 -0.1563774 -0.15889607
0000f0 1e de e7 bd be d5 4d be f4 17 4b be b4 14 54 be
       -0.11321662 -0.20101067 -0.19833356 -0.20711023
000100 92 0b 23 be f2 9c 3d be 60 b6 69 be b0 c3 72 be
       -0.15922382 -0.18516901 -0.22823477 -0.23707461
000110 b2 c5 e8 bd 4b 76 cd bd d7 75 ca bd 28 16 e7 bd
       -0.113658324 -0.10032328 -0.098857574 -0.11283523
000120 6e c6 67 be eb 31 ab bd 65 a0 1d be 40 8b e9 be
       -0.22634289 -0.083591305 -0.15393217 -0.45614052
000130 0f 1e ce be b7 d9 f2 be 95 86 01 bf 5a 2f 02 bf
       -0.40257308 -0.47431728 -0.5059598 -0.508535
000140 c1 38 c5 be 33 4a b9 be 97 63 be be 42 d3 da be
       -0.38519862 -0.36189422 -0.37185356 -0.42739302
000150 5c fa e8 be 3f 6d d6 be 4c db b8 be 7e 9d 07 bf
       -0.4550351 -0.41880223 -0.3610481 -0.5297469
000160 25 56 e3 be 4f be f1 be 12 cb 08 bf 02 aa dc be
       -0.4440166 -0.47215506 -0.5343486 -0.43098456
000170 b6 65 d3 be f1 51 ce be af de 02 bf ef 1f d2 be
       -0.41288537 -0.4029689 -0.5112104 -0.41039988
000180 73 c6 e4 be a0 e7 bc be 84 02 cb be f7 08 d6 be
       -0.44682655 -0.36895466 -0.39650357 -0.41803715
000190 4e 47 18 be f1 a5 d1 bb f0 7c c1 bd b6 e5 70 bd
       -0.1487095 -0.0063979556 -0.09447658 -0.05881282
0001a0 cc bf 8d bc 2f 1b 5e bd 75 e5 a3 3a 05 e0 d9 bb
       -0.01730337 -0.054225143 0.0012504297 -0.0066490197
0001b0 66 81 03 be 87 17 08 bd 54 b4 07 be b0 17 c3 bd
       -0.1284233 -0.033225562 -0.13252383 -0.095260024
0001c0 40 92 30 be 77 22 9b bd 95 c7 d9 bd 06 37 01 be
       -0.1724329 -0.07574933 -0.106337704 -0.12618646
0001d0 68 09 0d bd 6d 65 bf bd ef 78 d5 bd 0b 0d 14 be
       -0.0344328 -0.09345517 -0.10423457 -0.144581
0001e0 a4 a4 9f bd 00 2b 03 bd 85 cc c1 bd 7f ad c2 bd
       -0.077950746 -0.03202343 -0.09462837 -0.09505748
0001f0 c9 a6 db bd 49 14 07 3d 3d b2 6e bd 98 4c 1f 3d
       -0.10725171 0.03297833 -0.05827545 0.038891405
000200 54 d1 72 bc 68 1e 8a bd 9d 1c d8 bd ba 50 35 bd
       -0.0148204155 -0.06744081 -0.105523326 -0.04426644
000210 d7 8f 86 bd 1b 9e 83 bd 93 71 0f bd 63 47 85 bc
       -0.06570404 -0.064266406 -0.035020422 -0.016269391
000220 66 6b 63 3c 5c bc 69 bd a0 c2 a1 3c 29 90 de bd
       0.013880586 -0.0570644 0.019746125 -0.1086734
000230 c1 21 e1 bd c9 bc 28 3d 62 cf a9 bd 6c aa c4 bd
       -0.10992766 0.041195665 -0.08291508 -0.09602818
000240 43 ce 04 bd ff 6e c2 bd b5 22 ba bc f7 07 44 bc
       -0.03242327 -0.09493827 -0.022721628 -0.01196479
000250 46 d1 22 3d d4 63 cd bd 35 68 02 3d 7c 9c 5a bd
       0.03975036 -0.10028806 0.03183766 -0.05337189
000260 e0 97 85 bd 8f a3 80 bd d7 ae 71 3d b7 da 8a bd
       -0.065231085 -0.06281196 0.05900463 -0.06779998
000270 76 9e 0e bd 64 b8 c7 bc b4 04 bb bc 9b 1b 20 bd
       -0.03481909 -0.024379916 -0.022829391 -0.039088827
000280 a6 ec 98 3c 55 76 3f 3d 09 56 0c bc c1 e9 f9 bb
       0.01866753 0.04674371 -0.008565434 -0.0076267426
000290 4c 2d e7 bb 27 de 0a bd 1f 03 e5 3c 63 bf 89 bd
       -0.0070549604 -0.033903267 0.02795559 -0.06725957
0002a0 c0 da 7f bd 5d 8b 72 bd 05 be 70 3d 06 19 86 bd
       -0.062464476 -0.05921494 0.058774967 -0.065477416
0002b0 0a ca 4b 3d 4e 12 9a bd 70 e9 49 3c 94 40 c5 bd
       0.049753226 -0.075230226 0.012323722 -0.09631458
0002c0 7e 0d fc bd 6e 40 9f bd 72 4b bc bd 7f f3 11 be
       -0.12307261 -0.07775961 -0.091940776 -0.14253043
0002d0 db c3 b8 bd 31 85 0e bd 72 73 5d bd 8f ca f2 bd
       -0.090217315 -0.03479499 -0.054065175 -0.11855041
0002e0 d1 4e 83 3a af b9 5d bc 0d fe e9 bd 98 02 dd bd
       0.0010017996 -0.01353304 -0.114254095 -0.1079151
0002f0 d7 f8 b8 bc 2b cf 91 bd d1 00 6d bc 11 07 b3 bd
       -0.022579594 -0.07119592 -0.014465527 -0.08741582
000300 56 b3 e6 bd f7 10 42 ba fd 88 b8 bd f6 2f f4 bd
       -0.11264674 -0.00074030407 -0.090105034 -0.1192321
000310 aa fa 9e bd 1f 52 f8 bd c6 b9 44 bd fc fe b8 3c
       -0.07762654 -0.12125038 -0.04802873 0.022582524
000320 26 4d 00 3d 12 6f ac 3b 4a f8 8a 3b a6 bc 8c bd
       0.031323574 0.005262264 0.004241024 -0.06871919
000330 38 35 23 bc 6e 7d ea 3c 58 9c a7 bd 6a da 7b 3c
       -0.009961419 0.028624263 -0.08184117 0.015371898
000340 91 3f 89 bb d6 08 cc bb 7a 15 88 bd 94 27 68 bc
       -0.004188486 -0.0062266393 -0.06644721 -0.014169592
000350 de 86 c9 bd 8c 52 c6 bd 06 f8 b1 3c b2 95 5b bc
       -0.09840177 -0.09683713 0.021724712 -0.013402389
000360 b2 4c 71 bd d9 98 f5 ba 8c fd 63 3d d9 47 b3 bd
       -0.058911033 -0.0018737569 0.055661723 -0.08753938
000370 18 d0 14 3d d8 5a c8 bd d4 29 b4 bc dd 30 8b 3c
       0.036331266 -0.09782952 -0.021992601 0.016991073
000380 bc f1 a3 bc 22 6e fa bd 26 6b 87 bd ee c3 64 bd
       -0.020012729 -0.122280374 -0.06612234 -0.055850916
000390 f0 e2 85 bd 7c 50 3e bc b7 f9 4e bd a1 77 8f bd
       -0.065374255 -0.011615869 -0.050531115 -0.07005239
0003a0 7f e2 34 bd 52 88 4e bd 16 6e 0d be 62 5a 92 bd
       -0.044161316 -0.050422974 -0.13811526 -0.071461454
0003b0 79 52 d4 bc c1 a9 19 bc 5e b3 e5 bd d3 28 2e bd
       -0.025918232 -0.009378851 -0.11215852 -0.0425194
0003c0 e9 6d 07 be 5d bf 22 be 61 4d 94 bd f6 5d 12 be
       -0.13225521 -0.15893312 -0.07241321 -0.14293656
0003d0 ad e5 09 be a3 25 f0 bd b6 f7 24 be 60 40 2b bd
       -0.1346652 -0.11725929 -0.16110119 -0.04180944
0003e0 5e 28 50 3b 6f 4a c9 bd dd e1 83 3d 35 dd 7c 3d
       0.0031762342 -0.0982865 0.064395644 0.061734397
0003f0 4c c4 a6 bd a7 f5 7a 3d 98 11 8d 3c 8d b4 31 3d
       -0.081429094 0.06126943 0.017220303 0.043385077

bias f4 [16]
000000 21 23 b5 be 80 8c 9d bd d0 cb 93 be 4b 78 7a be
       -0.35378364 -0.07692814 -0.28866434 -0.2445995
000010 1a 9a e9 be 93 2a e2 be e3 b7 93 be 29 a5 d9 bd
       -0.45625383 -0.44173107 -0.28851232 -0.10627205
000020 79 ae 99 be d3 49 7e bd 31 88 08 3f a0 ca 87 3d
       -0.30015925 -0.062082123 0.5333281 0.066304445
000030 ed 6e e2 be 8f 13 17 be 78 f2 82 be e4 02 90 3e
       -0.44225255 -0.14753555 -0.25575614 0.28127205

weight f4 [120, 784]
000000 98 ac ec 3c 7f 40 65 bc 14 29 ce 3c 7b 4c 74 3d
       0.028890893 -0.013992428 0.025166072 0.05964325
000010 2c 31 17 3d c0 db 50 3d c2 75 19 bc fb a4 a2 bc
       0.03691213 0.05099082 -0.009366455 -0.01985406
000020 41 e3 80 3c 0d 5c b0 3d 7a 2c 55 3d 75 a2 52 3d
       0.015733363 0.08611307 0.05204437 0.051424462
000030 08 d9 e0 3c e2 96 07 bb 0f 8e 78 3c 87 f9 9b 3c
       0.027447239 -0.0020689298 0.015170588 0.019039882
000040 c3 fa 14 3d 47 b0 73 3d 5e 89 bd 3d be 15 a1 3d
       0.036371958 0.059494283 0.09254716 0.07865475
000050 34 fb 4a bc c3 48 1f bc 69 82 c7 3c dd 8a 60 3d
       -0.012388993 -0.009721938 0.024354177 0.05481993
000060 39 83 65 3d ca 3f d4 3d 32 59 bf 3c d4 1f 77 3a
       0.056033347 0.10363729 0.023357961 0.0009427045
000070 f9 56 1e 3d 18 b6 92 3d 57 b4 56 3d 82 6a d2 3d
       0.038657162 0.07163638 0.05241808 0.10274221
000080 3c 46 9e 3d 12 13 13 3d d0 8d a8 3b ef 53 3d bb
       0.0772824 0.03590686 0.0051438585 -0.002888914
000090 e2 bf 99 3c 1b 51 1b 3c 3a 6f 89 3c 4e 2a 96 3d
       0.018768255 0.009479786 0.01677667 0.07332288
0000a0 90 67 a4 3c 04 72 da 3c 75 47 1f bc f2 5f 1e 3c
       0.020068914 0.026665695 -0.0097216265 0.00966643
0000b0 e3 c5 9a 3b b2 1f d4 bb dd 84 a6 bc b4 38 db bb
       0.004723297 -0.006473505 -0.020327026 -0.006690109
0000c0 8a 72 99 bb 77 86 bb bc 93 8a d8 3d 10 a2 60 3d
       -0.0046828436 -0.022891266 0.10573306 0.054842055
0000d0 ba b1 51 be 55 a5 42 be b5 8e 88 be 8a 59 a9 3d
       -0.20477954 -0.19008382 -0.26671377 0.08269031
0000e0 db 87 53 bd 3c 05 6a be 30 ee 5d 3d f3 90 09 be
       -0.051643234 -0.2285356 0.05418223 -0.134342
0000f0 3c 95 4c bc 88 52 1d 3e 36 fd b0 bd 8a a9 02 be
       -0.012486752 0.15363514 -0.08642046 -0.12759987
000100 c5 11 c4 be 44 2b bf bd b7 00 02 3f 5b e4 5b 3e
       -0.38294807 -0.09334424 0.5078234 0.2147383
000110 6c eb 79 be 7a 66 c9 3e fe 76 4e be d2 1d 4b be
       -0.24406213 0.39335996 -0.2016258 -0.19835594
000120 44 81 eb 3d a4 c9 29 be 45 15 b3 bd fe 22 5d 3d
       0.11499265 -0.16580826 -0.08744291 0.05398845
000130 bf d9 c6 3c da a2 13 bd 75 a7 fc 3d 77 ae d5 be
       0.024273751 -0.03604398 0.123366274 -0.4173467
000140 3a fd bb be 7c ce d2 3d 5d 18 80 3e 1c 25 29 3d
       -0.36716634 0.1029329 0.25018588 0.041295156
000150 54 1c 88 3d 5e e3 8d bd 11 8a 4e 3a 6c 40 33 3e
       0.06646028 -0.069281325 0.000787885 0.17505044
000160 84 f6 64 3e d2 02 be 3d 66 6c 8f 3d 3d c0 77 bc
       0.22359663 0.09277882 0.07003097 -0.015121517
000170 66 34 17 bd 6e ad eb 3d 3e 12 d8 3d 84 65 63 3e
       -0.036915205 0.115076885 0.105503544 0.22206694
000180 06 46 29 3e 52 8c b2 3d 11 02 a1 bb 7f c4 b2 3c
       0.16530618 0.0871817 -0.0049135764 0.021822212
000190 a4 20 14 bc 87 12 d2 3c 25 4f 03 3d 67 26 d8 3b
       -0.009040985 0.0256436 0.0320579 0.006596375
0001a0 de 0b b9 bc 9c b1 34 bc b6 38 94 bc aa 76 82 3c
       -0.022588667 -0.0110286735 -0.018093448 0.015925724
0001b0 99 2b 83 3d 20 19 fe 3c 4d 86 c7 3c c9 ac 94 3b
       0.064048 0.03101784 0.024356032 0.004537199
0001c0 49 0e 23 3d d3 75 87 3d 06 c1 66 3d 92 0c f9 3c
       0.039808545 0.0661427 0.056336425 0.030401502
0001d0 87 ad b3 3c 59 e9 57 3c 6c f2 f9 bb 5d 7b 89 bc
       0.02193333 0.013178193 -0.007627776 -0.016782457
0001e0 5e b9 99 3d f8 0f 8e 3d 61 4f a0 3d bd cb af 3d
       0.07506059 0.069366395 0.0782764 0.08583782
0001f0 cc 0b 60 3d 20 7c f6 bc 08 e8 0f bb 46 01 7c 3d
       0.05469875 -0.030088484 -0.002195837 0.061524652
000200 26 de 11 3d b5 e9 20 3d 4d d8 39 3d 33 04 47 3d
       0.035612248 0.03928538 0.045372296 0.04858799
000210 9a 6d 10 3d ba 52 bb 3c 62 5f 8e 3c f9 d6 3e 3c
       0.035260774 0.022866596 0.017379466 0.011647933
000220 ce 31 90 3c ee 5c 52 3b ec b3 4a ba e2 1a 90 3c
       0.017601874 0.0032098847 -0.0007732499 0.017590944
000230 ae e5 ce 3b 06 ca 49 bc 18 a6 33 bc 5d 7b b5 ba
       0.006314001 -0.012316233 -0.010964893 -0.0013845969
000240 59 5b 8f bc bf 3d 83 bc bd e2 0d bd 4f cb 0f 3d
       -0.017499613 -0.016020654 -0.034640063 0.035106
000250 14 d3 96 ba be 4d 19 3b a8 4d 4e 3d 80 39 5c 3c
       -0.0011506998 0.0023392285 0.050367028 0.013441443
000260 fa 7a f7 3c 84 f7 5b bc 48 b9 68 bc b5 45 b4 3c
       0.030210007 -0.013425712 -0.014204331 0.022005895
000270 d7 a9 18 3d 0b 58 6a 3a ab cd 28 3d 9b 9c dc 3c
       0.037271347 0.0008939511 0.041211765 0.026930144
000280 12 81 35 3c d0 5e ce 3c d1 ed 97 3c 5a 18 a9 3c
       0.011078136 0.025191694 0.018546017 0.020641495
000290 ef 32 6f 3d 43 a8 24 3d 89 5c dc 3c bb 91 80 ba
       0.058398183 0.04019953 0.026899593 -0.0009809056
0002a0 da 2f a4 b9 cc 8b 0f 3d f1 f6 ad 3b 3c fb 15 3d
       -0.0003131617 0.03504543 0.0053089787 0.03661655
0002b0 22 94 4d 3d 42 70 2e 3c b1 ea 49 bc 0e 79 dc 3a
       0.0501901 0.010646882 -0.012324021 0.0016820745
0002c0 3b c3 33 3c 9b df 87 3d b4 c2 5c 3d 14 d6 91 3b
       0.01097184 0.06634446 0.05389662 0.004450569
0002d0 3a 37 29 bc 8b e2 ad bc 2a 7f ee bb 5e 92 09 3d
       -0.010328108 -0.021226188 -0.0072783427 0.033586852
0002e0 6a c5 49 3d 5a fb 11 3d 1e 75 c1 3c cc b5 2c bc
       0.049260534 0.0356401 0.023615416 -0.010541391
0002f0 1f 13 06 bd 04 ef f4 bc 24 81 2d 3d 99 5a b0 bc
       -0.03273308 -0.029899128 0.042359486 -0.021527575
000300 b5 9b ab bc 58 33 e8 3c f6 1d 0e bd 97 b8 73 3c
       -0.02094827 0.028344795 -0.03469654 0.014875553
000310 ae 7b 23 bd 1e ea b6 bc 17 4d d4 bd ff 76 3e bd
       -0.039912872 -0.022328433 -0.10366266 -0.046500202
000320 60 3b ac bc 0e cd 7e bd 28 9b 57 bc 9e 46 03 bd
       -0.021024406 -0.062207274 -0.013159551 -0.032049768
000330 75 2b 04 3d 0c fe 87 3d d5 2c e2 3d 4b 38 1c bb
       0.032268006 0.066402525 0.11043707 -0.0023837264
000340 fe 00 fc bd 04 3a 80 bb 66 be 9b 3d 37 b8 e0 3d
       -0.12304877 -0.003913166 0.07604675 0.10972636
000350 be 03 1f 3d f9 04 b5 3d af 7c d7 bd 63 38 fd bc
       0.03882193 0.08838839 -0.105218284 -0.030910676
000360 df b7 ad 3c fd de 18 ba 51 48 a8 3d 19 2b c1 bd
       0.02120584 -0.00058315677 0.08216918 -0.09432048
000370 12 ab f9 3d fd d3 00 3e b7 f6 95 bd 43 e1 a9 bc
       0.12190832 0.12580867 -0.07322448 -0.020737296
000380 a3 fe af ba 41 c0 23 3d 51 bd 42 3d 80 86 1b be
       -0.0013427328 0.03997827 0.047543827 -0.15188026
000390 0b ba 84 bd 62 d2 ee bd 44 d9 f4 bc 5a f4 1a 3d
       -0.064807974 -0.11661221 -0.029888757 0.037830688
0003a0 ee fe 6d 3c 28 0e 18 bd 0e 0d c6 3d 40 3a cd bd
       0.014526112 -0.037122875 0.09670459 -0.10020876
0003b0 56 d3 98 b8 47 1f ae bb 06 54 43 3d 44 91 7f 3d
       -7.287289e-05 -0.005313787 0.047687553 0.062394395
0003c0 e7 9f 9e bc 55 9f 21 bd 94 35 eb 3b 3d 63 74 bd
       -0.019363357 -0.03945859 0.007178018 -0.059664954
0003d0 9f 26 c7 bc 13 ed 75 bc 65 2f 34 3c 28 4c 77 3d
       -0.024310408 -0.015010136 0.010997628 0.060375363
0003e0 08 87 48 3d 76 07 74 3d eb 56 87 3c 5b 5b 9e bc
       0.0489569 0.059577428 0.016520938 -0.019330671
0003f0 04 06 20 3d 9b 7a 62 3d 51 aa 06 3d d1 be dc 3c
       0.039068237 0.055292707 0.03287727 0.026946457

bias f4 [120]
000000 a0 eb 38 3d 29 a4 2a bd 70 60 4e 3c 7f 9b 34 3e
       0.045146585 -0.04166046 0.012596235 0.17637442
000010 9c c2 95 bc 59 da 91 bc 98 56 87 bd 59 10 db 3d
       -0.018281274 -0.017804312 -0.06608313 0.106964774
000020 00 65 20 bd 92 37 55 bd c9 47 31 bd 98 98 42 bd
       -0.03915882 -0.05205495 -0.04328135 -0.047508806
000030 97 84 73 3d d2 fc 04 bd fa 6e a0 bc 24 27 3e bd
       0.05945262 -0.03246767 -0.019584168 -0.046424046
000040 8f fc d9 bb 82 ea a0 bc 7b b5 2e bd f3 9a 05 3d
       -0.006652422 -0.019643072 -0.042653542 0.032618474
000050 98 ec 63 bd ce c2 b6 3d ad 3a 41 bb cb df 05 bd
       -0.055645555 0.08923875 -0.0029484436 -0.03268413
000060 b5 4f d0 3d 6f 91 4d bc 70 b8 3c 3b 96 4e 5d 3d
       0.10171453 -0.012546881 0.0028796457 0.054030024
000070 9a b3 1f bd cf 70 ec bd 9f f3 8c 3d b8 89 22 3e
       -0.03898964 -0.11544954 0.068824045 0.15872848
000080 73 2b 5a 3e f9 85 03 3e 36 75 ef bc 3d 08 53 3b
       0.21305637 0.12844075 -0.029230695 0.0032200955
000090 4f 92 5d bd 7b b8 5a bd 92 e9 8c 3c bf 46 64 3c
       -0.05409461 -0.05339859 0.017201219 0.013932883
0000a0 1a a7 57 bd 65 d5 01 bd 42 31 9f bd 03 01 42 bd
       -0.052649595 -0.03169765 -0.07773067 -0.047364246
0000b0 c2 8c b2 bd 22 ea b9 bc 30 c5 dc 3d 94 e7 e0 bc
       -0.08718254 -0.022694651 0.10779798 -0.027454175
0000c0 93 90 8c bd 2d 79 6f 3d b2 28 22 bc 68 57 2d bd
       -0.06863513 0.05846517 -0.009897398 -0.042319685
0000d0 30 59 07 3c 86 ea 2b bd 11 d9 59 bd 43 eb af bd
       0.00826101 -0.041971706 -0.053185526 -0.085897945
0000e0 f3 29 bf bc e0 60 95 bd 89 3f 0a be 9d 62 47 bd
       -0.023335433 -0.07293868 -0.13500799 -0.04867803
0000f0 01 14 56 bd 2e c6 e1 3d ae 1f 68 bd 99 20 7a 3e
       -0.05226517 0.11024128 -0.056670837 0.24426498
000100 f0 4f 61 bd f5 a0 0f bd f1 d7 49 3d 42 fc e6 3c
       -0.055007875 -0.03506561 0.049278203 0.028196458
000110 eb 7a 9b bc 57 0d 09 bb 76 d7 87 3d 3d ff 8c 3e
       -0.01897951 -0.0020912492 0.06632893 0.2753848
000120 2b 8e d9 bd f7 bb b1 3d 91 3a 4d bc b1 91 5e bd
       -0.106228195 0.086784296 -0.01252617 -0.05433816
000130 e4 92 a6 bc 82 33 06 3d 8d 67 a5 bd 8f 8f 0d bd
       -0.020333715 0.032763965 -0.08076391 -0.034560736
000140 ee 89 d2 bc f4 8c 26 bd c0 96 6f bd 1e bf ef bd
       -0.025700536 -0.040661767 -0.058493376 -0.117063746
000150 1d 42 0e 3e 3b bb 3f 3d f5 f7 d6 bc 11 fd b3 bd
       0.13892408 0.046809416 -0.026241282 -0.08788503
000160 9f 21 a4 bc 59 e9 cd bc fe 29 cd bc c7 19 84 bc
       -0.020035563 -0.025135683 -0.025044437 -0.016125573
000170 76 2a ba bd f1 2e f6 bc 7f 26 87 3c 3d 17 7b 3d
       -0.0909013 -0.03005168 0.016497849 0.06130146
000180 85 50 8d bd a0 97 9f 3e 7c e5 d7 3d b6 ab 43 bd
       -0.069001235 0.31170368 0.105418175 -0.04777118
000190 68 f7 9a bc c3 fe b2 bd 9b 90 90 3d b6 19 bf bd
       -0.0189168 -0.08739998 0.07058831 -0.09331076
0001a0 fb 35 ed 3b 58 c3 b5 bc 62 ab aa bb 80 40 e5 bb
       0.007239101 -0.022187874 -0.0052084187 -0.0069962144
0001b0 82 e7 d1 bc 38 9d 73 bd 70 15 3e 3c c5 90 5d bc
       -0.025623087 -0.059476107 0.011601791 -0.013523285
0001c0 26 3f 2f bd 3e b0 48 bd 7e 6a c4 3d 5a a4 48 3d
       -0.042784832 -0.048996203 0.09590624 0.048984863
0001d0 29 ef f0 3d 8c 6e 17 bd 9d 1b 4d bc 6b ea 0c 3e
       0.11764366 -0.03697066 -0.012518791 0.13761298

weight f4 [84, 120]
000000 3a 70 b1 bd 90 a2 16 bd 88 62 11 3d 2d 09 2e bd
       -0.08663984 -0.036776125 0.035494357 -0.04248922
000010 6c 33 0b be 1d a0 e2 3c b7 10 c5 be f7 d8 d5 bd
       -0.13593835 0.027664239 -0.38489315 -0.104417734
000020 d0 ef 33 be b5 99 1e bd b7 07 20 bc a4 6f 33 be
       -0.1757195 -0.038720805 -0.009767464 -0.17523056
000030 3a 77 d3 3d 8c 79 8b 3d e7 47 82 3d 59 84 05 3e
       0.10325475 0.068102926 0.063613705 0.13038768
000040 0e 03 28 be 40 a4 57 be 46 03 b5 3d 07 3f 65 be
       -0.16407415 -0.2105875 0.08838515 -0.22387324
000050 4d 9e 23 bd c4 b9 2a be a1 22 a3 3c 3a 99 74 bd
       -0.03994589 -0.16672426 0.019913973 -0.05971644
000060 76 5b 1d be 12 41 83 be 16 42 a9 3d 43 3c e1 bd
       -0.15366921 -0.25635582 0.08264558 -0.10997822
000070 33 84 33 3b b9 d4 17 3d 75 28 9d bc 6b e6 84 bd
       0.002739203 0.037068103 -0.01918433 -0.06489261
000080 67 9f 3d bb 77 b2 a1 3d 4d e2 76 3c 46 bc 16 3d
       -0.0028934123 0.078953676 0.015068603 0.036800645
000090 8f 50 b7 bd 65 f3 36 bd 64 73 62 bc 84 6f 89 be
       -0.08950912 -0.044665713 -0.013821457 -0.26842892
0000a0 df 73 58 bd 56 96 38 be 26 4c f4 bd 8f 23 0c 3d
       -0.05284488 -0.18026099 -0.11928587 0.0342136
0000b0 81 0f 95 be 2d a6 21 bd ee a3 bc bd d5 a5 39 3d
       -0.2911339 -0.03946512 -0.092109546 0.045324165
0000c0 7f aa c1 bd bc e8 6c bc 39 42 d7 bc 57 18 50 bd
       -0.09456348 -0.014459785 -0.026276695 -0.050804462
0000d0 00 fd 1c 3d 61 30 db ba 94 ca b1 3d 88 74 ab 3d
       0.038327217 -0.0016722792 0.08681217 0.08371836
0000e0 b8 a6 b6 bd aa 7a ae bd 42 c3 5c 3d 54 22 4f be
       -0.08918518 -0.0851949 0.05389715 -0.20227939
0000f0 a3 3f c2 bd 23 46 fd bd cc 63 3a 3d 4b e2 54 bd
       -0.09484794 -0.12366893 0.04550533 -0.051973622
000100 d6 a0 94 bb ab 2d 7e bd 39 95 e2 bd 5c 36 fc bd
       -0.0045357747 -0.06205527 -0.11063618 -0.12315056
000110 d0 86 37 be 2d 51 8b bd d0 f7 01 be bc d6 f6 bd
       -0.1792252 -0.068025924 -0.12692189 -0.12052676
000120 ac f5 5b bd 39 d6 4c 3d a7 64 8a be 94 d1 ab 3c
       -0.053701088 0.050008986 -0.27029917 0.020973958
000130 6b 25 bd bc b6 7b 29 bd 1e a5 80 bd 9f ef 55 bd
       -0.023089131 -0.041377746 -0.062814936 -0.052230474
000140 02 65 86 3d 40 fb cd bd b1 47 df bd 95 e9 81 be
       0.065622345 -0.10057688 -0.10902346 -0.2537352
000150 50 f8 70 bd 6c 99 c9 3b a2 3d c2 3b da 94 35 3d
       -0.05883056 0.0061523225 0.0059277574 0.04433141
000160 e8 62 ca bd 1a 9e c9 3c 44 a6 6e bd b6 5b 46 bd
       -0.09882146 0.024611522 -0.058264032 -0.048427306
000170 70 24 39 bd 33 be 92 be a9 bd 8d 3d a4 bd ca bd
       -0.045200765 -0.28660735 0.069209404 -0.09899452
000180 52 ec bc bd 07 3a 80 bd 9b 31 cf bd f3 dd c5 be
       -0.09224762 -0.06261068 -0.10116883 -0.38645896
000190 45 1a fe 3c 34 84 10 3e fa 40 4a bd 57 72 28 3e
       0.031018386 0.14112931 -0.049378373 0.16449867
0001a0 75 94 df bc f1 16 a7 3d ca c1 f8 3c 29 67 dc bd
       -0.02729247 0.081586726 0.030365843 -0.10761864
0001b0 b1 f2 43 bd d2 66 64 bc 2f 35 14 bd 6c da 80 bd
       -0.04783887 -0.01394053 -0.036183532 -0.06291661
0001c0 d2 95 76 3c 8a a9 dd bd 18 a2 96 bc dc b1 d6 be
       0.015050368 -0.10823353 -0.01838784 -0.4193257
0001d0 87 0b 04 bd 11 26 2f bb f0 95 2c be 39 17 41 bd
       -0.032237556 -0.002672557 -0.16854072 -0.047141287
0001e0 93 86 59 3c 2b 82 74 bd d7 ac 62 3d db fd a5 bd
       0.013276714 -0.05969445 0.055340614 -0.0810506
0001f0 da 56 0a be 94 4a 6a bc b7 68 f1 bd 66 53 3b bd
       -0.13509694 -0.014300007 -0.11787551 -0.04573383
000200 17 e3 4d 3d 5d 84 65 bd ae 10 c0 bb c6 33 0d be
       0.050265398 -0.056034435 -0.0058613634 -0.13789281
000210 79 c8 d8 bd 94 70 93 bd 41 83 62 3c fa 70 b1 bd
       -0.10585112 -0.07199207 0.013825239 -0.08664127
000220 0b 84 77 bd 58 f7 de bd cd 63 cd bd 8a c7 28 bd
       -0.06042866 -0.10887021 -0.10028801 -0.04120592
000230 5d 16 08 be 13 1a 2b bd a8 87 76 bd 18 bb eb bd
       -0.13289781 -0.041772913 -0.060187966 -0.11510295
000240 c8 e6 2b 3c 46 91 5a 3c 49 43 b0 3c e3 e3 b7 bd
       0.010492034 0.0133403 0.021516459 -0.08979013
000250 cf 1c e5 bc 6c a9 ac bd 56 39 80 3c ae 3f 4c 3d
       -0.027967839 -0.08430752 0.01565234 0.049865417
000260 6c 78 94 bd 82 60 bb bd ab 11 04 be 1c 0f 8a bd
       -0.07249531 -0.09149267 -0.12897365 -0.06741163
000270 a8 1b 1c bb 29 95 d0 bd e3 53 e7 bd 89 34 a3 3c
       -0.0023820195 -0.101847 -0.11295297 0.019922512
000280 11 93 e5 bc fd 09 86 bb 86 cc dc 3c 85 f0 b2 bd
       -0.028024228 -0.004090546 0.026952993 -0.08737282
000290 27 cc 9c bd 4b ce 91 bd 53 73 cf 3d aa 93 97 3c
       -0.076561265 -0.071194254 0.10129418 0.018503029
0002a0 fd d8 03 bd 19 f5 46 bc 68 fe 10 bd da 99 a8 bd
       -0.032189358 -0.012143397 -0.03539887 -0.0823247
0002b0 04 36 c1 bc 28 e4 ad ba 69 de f5 3b 49 ea 36 bd
       -0.023585327 -0.0013266848 0.00750332 -0.044657025
0002c0 aa f3 c1 bd e3 ae 55 bd 28 58 91 bd f2 d7 dc bd
       -0.09470303 -0.052168738 -0.070968926 -0.10783376
0002d0 4d 3a ab bd 9b e7 18 bd ea 8d 85 3d 48 c6 bc 3d
       -0.08360729 -0.03733025 0.065212086 0.09217507
0002e0 7d 45 be bd 47 55 87 bd 2d f0 81 3b e3 07 08 be
       -0.092905976 -0.06608062 0.0039653988 -0.13284259
0002f0 f3 18 44 3c 70 18 aa 3c 0b d0 6e bd cc 0c d8 bd
       0.011968839 0.020763606 -0.058303874 -0.10549316
000300 99 5d 60 bc 0d 09 c7 bd cc ec 48 3d 5f ca a6 bc
       -0.01369419 -0.09718523 0.049053952 -0.02036017
000310 27 5d 08 3c 06 e9 5c 3d bc 3d 12 be 43 c7 9e 3b
       0.0083229905 0.053933166 -0.14281362 0.004845531
000320 4d c8 b8 bd 50 05 bd bd 6c 75 85 bd ea ce 71 bd
       -0.09022579 -0.09229529 -0.06516537 -0.05903522
000330 06 c9 01 3c fe 55 07 3d 79 7c 0c be a6 f9 11 bd
       0.007921463 0.033040993 -0.13719358 -0.035638474
000340 06 33 c9 bd 04 f6 84 bc 4f 62 2a bc 64 0c ce 3b
       -0.09824185 -0.01623059 -0.010399415 0.006288098
000350 60 4b 3c 3c 5c da 32 be 4e d2 0e bd 2e 17 3e bc
       0.01149258 -0.1746611 -0.03486853 -0.011602206
000360 7c 47 00 3c 4a a1 7d bb 19 63 1c bd 0e 45 c2 bd
       0.007829543 -0.0038700872 -0.038180444 -0.094858274
000370 a7 89 43 bd 21 d3 c6 bc 64 a2 c9 bd f6 d7 92 3c
       -0.047738697 -0.024270596 -0.09845427 0.017925244
000380 e1 42 92 3c d6 67 22 bd 1e 31 f5 3c 33 4e 6e 3d
       0.017854156 -0.039649807 0.029930647 0.058180045
000390 b3 ce d4 bd 5d 30 78 bd ec 3a 69 3d 80 c3 4c bd
       -0.10390987 -0.060592998 0.056940958 -0.04999113
0003a0 74 ea a7 bd 39 a9 0f bd 3e 4b f0 bd 61 94 7f bd
       -0.08199015 -0.035073493 -0.11733101 -0.062397365
0003b0 70 80 d4 bd 95 83 97 bd c4 3c da bd 39 fb 9f bd
       -0.1037606 -0.07398144 -0.106561214 -0.07811589
0003c0 13 b2 29 bc a9 7d 81 3d 7f 97 3a 3e bb 85 6b 3c
       -0.010357398 0.06322796 0.18221854 0.014375146
0003d0 cb ce d6 3c 67 12 f2 bd 4e 11 65 3e ff c9 44 be
       0.026221653 -0.11819916 0.22369882 -0.1921768
0003e0 1a 3c 8b 3d be 7d eb bc 6e 86 a5 3d 3c e1 1f 3e
       0.06798573 -0.028746482 0.08082281 0.15613264
0003f0 4c 6c 0c bd bc 46 7e 3d b0 2a 66 3d f1 13 6e bd
       -0.034282967 0.062079176 0.056193054 -0.058124486

bias f4 [84]
000000 71 20 30 3d bf 70 66 bc 9b e2 3f bd 0d 9a dd bc
       0.04299969 -0.014064967 -0.046846967 -0.027050996
000010 20 4b 1e be ec ed 40 3e a8 39 57 3d 0b 75 de 3d
       -0.15458345 0.1884076 0.05254522 0.10862168
000020 14 5f 00 3e 86 04 91 3d c5 91 6b be 3a e1 8b be
       0.1253627 0.07080941 -0.23004825 -0.27320272
000030 b9 73 92 3e 5d dc 82 3c 53 95 bd bd 9e 55 0a 3c
       0.28603914 0.015974218 -0.09256997 0.008443264
000040 43 53 50 3d ba 74 8c be 05 3f 85 3c 6f 83 17 bd
       0.050860655 -0.27432805 0.016265402 -0.03699058
000050 0b 2f 78 3e ed e6 95 bd d8 1d 05 be f5 c0 9f bc
       0.24236695 -0.07319436 -0.12999666 -0.019501189
000060 6d fa 06 be e9 81 d6 3d 03 ef d6 bc f8 cc 1a be
       -0.13181467 0.10473997 -0.026237017 -0.15117252
000070 a3 46 53 be 1f cf b5 bd e7 ca 96 bd 07 a8 29 be
       -0.20632415 -0.08877396 -0.07362919 -0.16568004
000080 89 48 74 bb 6a 15 6e bd be b6 f0 bd 20 86 3e 3d
       -0.003727468 -0.05812589 -0.11753605 0.04651463
000090 24 e1 8e 3d e8 16 a9 bd 37 5a 8d bd e5 0a 24 bd
       0.06976536 -0.08256322 -0.06901973 -0.040049452
0000a0 ee 4e 5e 3e 10 8b 07 3d a4 e6 49 bc d8 20 e6 bd
       0.21709797 0.033091605 -0.012323055 -0.11236733
0000b0 e4 ed 8c 3d 21 6c 35 be f0 d0 2f be 54 3c d7 bd
       0.068813115 -0.17717029 -0.17169547 -0.105095536
0000c0 f1 c3 53 bd cb 98 21 3e e9 55 5c ba 89 97 74 3e
       -0.051700536 0.15780942 -0.00084051356 0.23885931
0000d0 0b 4d 68 3e 82 ba 07 3b d4 44 bd 3d 51 49 a0 bd
       0.2268564 0.0020710533 0.092416435 -0.07826484
0000e0 89 5f e1 bd 47 77 3d bd b7 41 f6 3e 21 c7 cc bd
       -0.1100455 -0.04625633 0.4809701 -0.09998918
0000f0 8a 8e a6 bd dc 43 9f bd 60 7f 14 bc 84 1d 66 be
       -0.08132656 -0.07776615 -0.009063572 -0.22472197
000100 39 2c 16 bd 63 b4 a5 bd 49 e6 29 3e 88 9b 69 bd
       -0.036663268 -0.08091047 0.16591753 -0.05703309
000110 cd 67 06 3c 93 11 aa 3d ac d5 85 3c 96 8a f8 3d
       0.008203459 0.08304133 0.016337238 0.12135808
000120 0d b0 11 be a1 1e d6 bd 34 12 fd bc e0 61 50 bc
       -0.14227314 -0.10455061 -0.030892469 -0.012718648
000130 32 57 27 bd 74 b5 a6 bd 7f cd af bd 41 d6 c4 bc
       -0.04085464 -0.08140078 -0.08584117 -0.024027945
000140 6d d3 9e bd 38 46 cd bd ba a7 c1 bc 5b 21 1d be
       -0.0775517 -0.10023159 -0.023639549 -0.15344755

weight f4 [10, 84]
000000 bb f5 5c 3e 77 f3 11 bd 33 c1 80 be 4a 6b 97 3e
       0.21578114 -0.035632577 -0.251474 0.29574043
000010 a0 f2 19 3e f4 35 d6 bd 02 59 0d 3d 2b 18 41 bf
       0.1503396 -0.104595095 0.034508713 -0.754275
000020 36 10 ec 3d 0d 6c 4b bd bf 52 9b 3e b9 8a 8d 3e
       0.115265295 -0.049663592 0.30336568 0.276449
000030 7f 8c 62 be 39 09 54 bd b8 4a ed ba 37 15 1e be
       -0.22123908 -0.051766608 -0.0018103933 -0.1543778
000040 0a 8a 31 3e 9a 0c 8e 3e b6 d8 4b 3d 46 d7 f1 bd
       0.17337814 0.2774399 0.04976722 -0.11808638
000050 72 35 2c be 9a 3e 35 be 78 8c d7 3d 73 13 92 3d
       -0.16817263 -0.17699662 0.10524839 0.07132616
000060 5a 2a 96 3e 66 e2 ae be bc bf 8a be 08 39 05 bb
       0.29329187 -0.34157103 -0.27099407 -0.0020328183
000070 69 34 9b 3e 00 08 62 3c 1c 74 98 bd 93 38 40 3e
       0.30313423 0.013795853 -0.07444021 0.18771581
000080 5b d7 54 bc 1b 73 07 be 7b 0f 70 3d d4 7f 1e 3e
       -0.012990798 -0.13227503 0.058608513 0.1547845
000090 2e be 17 bd 27 98 02 3d e1 4c ea 3c 2d c8 a7 3c
       -0.037046604 0.031883385 0.028601112 0.020481193
0000a0 6c b6 6b 3d d3 08 4d 3d 68 bf cf 3d 57 60 ed 3d
       0.057547018 0.050057244 0.1014393 0.11590641
0000b0 71 28 8e be a8 26 40 3e b9 a8 2d 3d 89 a9 b9 3d
       -0.2776523 0.18764746 0.042397235 0.090655394
0000c0 2c b9 88 3d fd 04 34 be af d5 ab bd ca fc a7 3e
       0.06675944 -0.17580028 -0.08390366 0.3281005
0000d0 25 38 e1 be 9b cd 26 bc 1d 1a 16 3f 5a ce fa bb
       -0.43988147 -0.010180856 0.58633596 -0.0076539936
0000e0 e0 2d 27 3e d8 bc 06 3e 70 57 f9 be 7a 51 10 3e
       0.16326094 0.13157976 -0.48699522 0.14093581
0000f0 10 61 72 bd de 75 51 3d fa 86 41 bd 0d dd 24 3e
       -0.059174597 0.051137798 -0.047247864 0.16099949
000100 ff 69 0f 3e 2b 6a 61 3e 7c 0e 26 bf 6a 4a fb 3e
       0.14005278 0.22013156 -0.6486585 0.4908021
000110 27 7b 77 bd 71 7f 32 3f a8 b4 01 be 3b 74 e4 3d
       -0.06042018 0.6972571 -0.12666571 0.11154982
000120 b5 64 5a 3d 2f 1e 4b 3d e9 9f c4 bd d0 94 5a 3c
       0.053318698 0.049589332 -0.09600813 0.013341144
000130 0b 14 a4 3d 17 21 3f be 04 1c e8 bd f5 90 59 3e
       0.080116354 -0.18664967 -0.113334686 0.21246703
000140 63 a1 1d bc 54 2d d3 bd c6 95 79 3e eb db 64 3e
       -0.009620997 -0.1031138 0.2437354 0.22349517
000150 d2 cf b5 3d 0a 23 81 bd 05 17 ad 3e c0 b7 2b be
       0.08877529 -0.06305511 0.33806625 -0.16769314
000160 68 4e 8e 3d 3b d1 9d be 87 81 56 be 27 ab 8e 3d
       0.069485486 -0.30823693 -0.20947848 0.069662385
000170 c0 6f 16 3e 73 e8 34 3c 81 5f f9 3e 7e 14 96 3d
       0.14691067 0.011041748 0.48705676 0.07328127
000180 92 95 42 3f 2e d7 f8 3d a0 aa ae 3e 93 e8 0e be
       0.76009476 0.12150417 0.34114552 -0.13955908
000190 4d d8 b2 3e a3 20 e8 be 3d b0 48 3e e2 24 d0 3e
       0.3493065 -0.453374 0.1959848 0.4065314
0001a0 3c 71 b9 3e 38 30 ee 3d 8e 83 db bb d5 8e 0b be
       0.36219203 0.11630291 -0.006699032 -0.13628705
0001b0 3c 47 57 3d 97 39 63 be 58 5f 80 bc c8 19 87 3d
       0.05255817 -0.22189938 -0.015670463 0.06596714
0001c0 76 58 4e bc 3e c2 a2 bd d8 21 8f bd 8b 15 8a 3e
       -0.012594333 -0.07947205 -0.06988877 0.2696956
0001d0 b2 7b 21 be 44 10 a2 bc 9d e2 7e 3d 97 72 0e be
       -0.15769842 -0.019783147 0.062227834 -0.139109
0001e0 0e a8 69 be b3 41 f9 3e 65 8f bd bd c3 0a 95 3e
       -0.22818014 0.48682937 -0.09255866 0.29109773
0001f0 bb 0b 44 3e 6c f0 4b be 14 5a 3f be 3b df 4c 3e
       0.191451 -0.19915932 -0.18686706 0.2000703
000200 0e 1e d0 be a9 3e d0 3e 05 6f 7c be f2 f7 87 bd
       -0.4064793 0.40672806 -0.24651726 -0.06639089
000210 4d 84 3f 3d 2a 15 ba be 25 2c 09 be b2 ed cb be
       0.04675703 -0.36344272 -0.13395746 -0.39829785
000220 9d bb 62 3e 5f 70 7d 3b 5e 8c a0 bd e1 d3 14 be
       0.22141881 0.0038671715 -0.07839273 -0.1453395
000230 30 8c e6 3c 5b 95 99 3e e7 7f cc 3e d9 1f 34 3e
       0.028143018 0.29996762 0.39941332 0.17590274
000240 58 39 25 3d 8e ee 5b 3e d0 a2 db 3e 7a 80 10 3e
       0.04033789 0.2147772 0.42897654 0.1411151
000250 38 8f e6 bd 86 d6 94 be 76 ee 8c be f1 b9 8d 3e
       -0.112577856 -0.29069918 -0.2752568 0.27680925
000260 8a 6b 5a bd 28 6a ac be 62 ba 98 3d 99 61 c9 3e
       -0.053325213 -0.3367474 0.07457425 0.39332274
000270 13 c3 bb 3c 12 1a b1 3d 36 2f bf bd ac 4d 86 bc
       0.022920167 0.08647551 -0.09335177 -0.016394459
000280 18 44 35 3d 33 f4 fe bd a1 91 f9 3c 95 b9 9d 3d
       0.044254392 -0.12448921 0.03046495 0.077014126
000290 1d ce 84 3e 9f d8 16 bd f0 f2 65 3e 58 18 1d be
       0.25938502 -0.03682768 0.22455955 -0.15341318
0002a0 8f e7 74 bd 77 aa c9 3d 66 84 54 bd 60 aa 28 3e
       -0.059791144 0.09846967 -0.051884077 0.16471243
0002b0 06 1f c5 3d 3e 9e 89 3d 7c 65 10 3c d2 51 2f be
       0.09625058 0.067196354 0.008813258 -0.17121056
0002c0 6c 66 ba be 94 8a f9 bd 06 e8 0c 3f 5b 69 8d 3d
       -0.36406267 -0.12184635 0.5504154 0.069048606
0002d0 93 cb 3b be fc bf 0f 3d 7e 51 82 3e 59 d8 0f 3d
       -0.18339376 0.0350952 0.254528 0.035118435
0002e0 0c e1 2c 3e 0f af 2e bf 87 2f 93 3d 1d 5d 83 3e
       0.16882724 -0.6823587 0.071867995 0.25656977
0002f0 dd 71 f4 bd 9d 29 ab 3e 0b 27 da bc f6 55 b9 3d
       -0.1193578 0.33430186 -0.026629945 0.09049599
000300 b9 5e 82 3e 8d 2e 1e bd 54 5a 14 be af 48 e1 3d
       0.25462893 -0.038618613 -0.14487582 0.110001914
000310 1c 15 6d 3e 92 53 ae bc ad 81 72 3e 37 99 54 3e
       0.23152584 -0.021280084 0.2368228 0.20761572
000320 b2 22 b8 bd 52 b3 77 bd c0 bb 69 3d 3a fc 39 bb
       -0.089909926 -0.060473748 0.057063818 -0.0028379099
000330 70 00 2d 3e ac 5a 30 3e 8f 4a 00 be 21 3a eb bc
       0.16894698 0.17222089 -0.12528442 -0.028714241
000340 9a 06 e3 3e 40 d2 41 3e 26 c6 6c 3e 5f 62 4c 3e
       0.44340974 0.1892786 0.23122463 0.199594
000350 8a 3b 91 be 85 3b 45 3e 2d ea 27 bb e3 ea 4d 3d
       -0.28365737 0.19260986 -0.0025621757 0.050272834
000360 87 9b 54 bc 81 d7 8d be 84 ad 41 3e 0b 80 a9 3e
       -0.012976534 -0.2770348 0.18913847 0.33105502
000370 03 78 07 3f ba a0 a0 3d b2 f6 a3 3e 4d de bb 3e
       0.529175 0.07843156 0.3202415 0.3669304
000380 87 ee ea 3d 83 6d 80 3e a9 23 9e bd a8 cf f3 3d
       0.11471277 0.2508355 -0.077216454 0.11904842
000390 95 0c 9c 3d a6 a0 f9 3d 24 e0 78 3e 9b 63 d9 3e
       0.07619587 0.121888444 0.24304253 0.42458805
0003a0 f0 9e 4c 3e 8c 71 c2 bd 0d 2f 5b 3e 19 b9 af 3e
       0.19982505 -0.094943136 0.21404667 0.34320906
0003b0 c8 7b c5 bb fe 97 11 bf 23 48 20 3d a9 14 a5 be
       -0.0060267188 -0.56872547 0.039131295 -0.32242325
0003c0 0a 7c d3 3d ab 4d b6 3d ff 08 8c bd f4 0f 1c bd
       0.10326393 0.08901533 -0.06837653 -0.03810115
0003d0 44 74 25 3e b5 ad a8 3d 0b af b3 bd 1e d0 63 3e
       0.16157633 0.08236257 -0.08773621 0.22247359
0003e0 dd 8e 81 be 3c f3 f3 bc 4a 20 22 3e 02 44 91 3e
       -0.2530431 -0.02977907 0.1583263 0.28372198
0003f0 f9 df c3 3d 01 8b 9b bd 25 00 82 3d 73 ea 8d 3e
       0.09564204 -0.07594872 0.06347684 0.27717933

bias f4 [10]
000000 e3 e0 e4 3d f6 ea d7 be 2c a1 94 be 30 10 a0 be
       0.11175706 -0.42171448 -0.29029214 -0.3126235
000010 28 21 d3 3e b0 33 ff 3c cf cd ba be a5 21 4a 3f
       0.41236234 0.031152576 -0.36485144 0.7895759
000020 80 87 bd 3d 38 2a d6 3d
       0.0925436 0.10457271
